NN/model/model.pth (torch, 16799 bytes, 4 tensors)

linear1.weight f4 [256, 11]
0	0xbe08b19b	-0.13349001
1	0x3dbb1342	0.091345325
2	0xbdf62a40	-0.12019777
3	0xbefeb928	-0.49750638
4	0xbf0a4501	-0.5401154
5	0xbea7ec61	-0.3279753
6	0xbec02be2	-0.3753348
7	0x3e1c53a1	0.15266277
8	0x3dac9641	0.08427096
9	0x3e381998	0.17978513
10	0x3e6b37e8	0.22970545
11	0xbf2f88b2	-0.68567955
12	0x3dfb7d75	0.122797884
13	0xb9f7fbb3	-0.00047299042
14	0x3f3343e7	0.70025486
15	0x3eb3e035	0.35131994
16	0xbec4339a	-0.3832062
17	0x3d2917cb	0.041282456
18	0xbf43b82d	-0.76452905
19	0xbef6efe1	-0.48229888
20	0x3ea41dae	0.32053894
21	0xbdd3f80a	-0.10350044
22	0x3f68726e	0.90799606
23	0x3d9a5395	0.07535473
24	0x3e1f9bec	0.15586823
25	0xbebe2698	-0.3713882
26	0xbd1efa55	-0.038812954
27	0xbd042f67	-0.03227177
28	0x3f25d6dc	0.64780974
29	0x3f3fe202	0.74954236
30	0x3f0f628c	0.56009746
31	0x3ed863a0	0.42263508
32	0xbe8ac004	-0.2709962
33	0xbe84fa3f	-0.25972173
34	0xbd384c12	-0.04499442
35	0xbf2ea7c6	-0.6822475
36	0xbe33651a	-0.17519036
37	0xbf0c440d	-0.5479134
38	0xbe8a9604	-0.27067578
39	0xbe2daf25	-0.16961344
40	0xbd2fabca	-0.04288844
41	0x3e919c38	0.28439498
42	0x3df6bb1b	0.12047406
43	0x3d82ffd1	0.06396449
44	0x3d5eb135	0.054368217
45	0xbe319e9f	-0.17345665
46	0xbeba04ba	-0.3633173
47	0xbf0527b1	-0.5201369
48	0x3f025de6	0.5092453
49	0xbd073ce1	-0.033017043
50	0xbf16f411	-0.58966166
51	0x3e84e560	0.2595625
52	0xbedff3c8	-0.43740678
53	0xbf3b9c46	-0.7328533
54	0xbf55f2aa	-0.835734
55	0xbcaa7dcd	-0.02081194
56	0x3d15f226	0.036607884
57	0x3d473d4d	0.048642445
58	0xbe1171cc	-0.14203566
59	0xbef0c6a4	-0.4702655
60	0xbe9d6606	-0.307419
61	0x3d17e40d	0.03708272
62	0xbee4e925	-0.44709125
63	0xbdede9e3	-0.11616876
64	0xbd8ef10e	-0.06979571
65	0x3e0042ba	0.12525454
66	0x3d7472f4	0.05967994
67	0xbf136966	-0.575827
68	0x3e3f2fb9	0.18670548
69	0xbdc93d36	-0.09826128
70	0xbe6e4084	-0.23266798
71	0xbe8397f7	-0.25701877
72	0xbec14812	-0.37750298
73	0xbdb68ef0	-0.08913982
74	0x3d43a3e3	0.047763716
75	0x396ac688	0.00022389938
76	0xbc866e7d	-0.016410107
77	0xbe3dc072	-0.18530443
78	0x3d116bc6	0.03550317
79	0x3d5a3297	0.053270902
80	0xbda93604	-0.08262256
81	0xbe714587	-0.23561679
82	0xbde5c37c	-0.11218926
83	0xbd3b1cae	-0.045681648
84	0xbd6c97ec	-0.05776207
85	0x3dabc559	0.083872505
86	0xbdcbc5a7	-0.099498086
87	0xbe0a4ff8	-0.13507068
88	0xbef1f78b	-0.47259173
89	0x3d008203	0.03137399
90	0xbd7a247d	-0.061069954
91	0xbec6d523	-0.38834485
92	0xbe186c0b	-0.14884965
93	0xbbedafae	-0.0072536087
94	0xbefe566b	-0.49675307
95	0xbec8aeba	-0.39195806
96	0x3d85c4bf	0.06531667
97	0x3d4b3b1b	0.049616914
98	0xbd937b29	-0.07201225
99	0x3f2ba33d	0.67045957
100	0x3f50fde9	0.81637436
101	0x3f32d25a	0.6985222
102	0xbe591b25	-0.21201761
103	0xbdeff4a3	-0.117165826
104	0xbe9cc557	-0.30619308
105	0xbdce85e7	-0.100841336
106	0x3f17714b	0.59157246
107	0x3f179571	0.59212404
108	0x3f2b5e17	0.66940445
109	0x3f00be8c	0.5029075
110	0x3e536b2b	0.2064635
111	0x3e2db741	0.16964437
112	0xbf08c384	-0.53423333
113	0x3c9335ea	0.017970044
114	0xbce81e28	-0.028334692
115	0x3e1b6761	0.15176155
116	0x3e20ccc7	0.15703116
117	0xbc6d8a6a	-0.0144983325
118	0xbe289823	-0.16464286
119	0xbdf16d14	-0.11788383
120	0xbea43e22	-0.32078654
121	0xbdb7c0d4	-0.08972326
122	0x3eabcbbf	0.33553883
123	0xbf02f345	-0.5115245
124	0xbefe5b20	-0.49678898
125	0x3e011db0	0.12608981
126	0xbddfcaae	-0.1092733
127	0x3e010389	0.12599005
128	0xbe190a27	-0.14945279
129	0xbecb12fc	-0.3966292
130	0xbe0242f6	-0.12720856
131	0xbf257d0f	-0.6464395
132	0x3cd91b89	0.026502388
133	0xbe7b2ae0	-0.24528074
134	0x3eb93dde	0.36180013
135	0x3ea379fb	0.31929
136	0xbe9b9298	-0.3038528
137	0xbf0d2f19	-0.5514999
138	0x3d5bbacb	0.053644937
139	0x3f07a333	0.529834
140	0xbf2be918	-0.6715255
141	0xbec19897	-0.3781173
142	0xbf914ec6	-1.1352165
143	0x3dbca006	0.092102095
144	0x3e20af92	0.15691975
145	0xbe6967ed	-0.22793551
146	0xbd3beb78	-0.045878857
147	0x3e35bce5	0.17747839
148	0xbe476c92	-0.1947501
149	0x3e36bec1	0.17846204
150	0xbde30510	-0.1108495
151	0xbe0aadc1	-0.13542844
152	0xbe3c2883	-0.18374829
153	0xbe874b23	-0.26424512
154	0x3dac8ae7	0.08424931
155	0x3e701a9e	0.23447654
156	0xbde8fd35	-0.113764204
157	0x3d5bac01	0.053630833
158	0x3e3946d9	0.18093432
159	0xbd2c571c	-0.04207526
160	0xbeb55997	-0.35419914
161	0xbe1ef29b	-0.15522234
162	0xbe81d0a4	-0.25354493
163	0xbe680dfc	-0.22661585
164	0xbec85011	-0.39123586
165	0xbef0e395	-0.4704863
166	0x3e57537d	0.21027942
167	0x3f0be3c6	0.5464443
168	0xbf81ac6d	-1.0130745
169	0xbf8a6b14	-1.0813928
170	0x3c5cc9c7	0.013475842
171	0x3ba6cce5	0.0050903433
172	0xbf4df9a4	-0.80459046
173	0xbf59c197	-0.8506102
174	0xbcc7c89a	-0.024387646
175	0x3bb736fd	0.005591272
176	0x3bc16a97	0.005902599
177	0xbec2bc81	-0.38034442
178	0xbebd1323	-0.36928663
179	0x3d95d33c	0.073156804
180	0x3e22c6ae	0.15896103
181	0xbe59bd9d	-0.21263738
182	0xbcda71ce	-0.026665594
183	0xbfa842c7	-1.3145379
184	0xbfabb3c8	-1.341424
185	0x3f113682	0.567238
186	0x3eee497d	0.46540442
187	0xbebf7533	-0.37394103
188	0xbbce0a16	-0.0062878234
189	0x3e066b08	0.13126767
190	0xbc9b40d2	-0.018951807
191	0xbc8de3ef	-0.017320601
192	0xbe1d95d0	-0.1538918
193	0xbe36d891	-0.17856051
194	0x3dece3cd	0.11566887
195	0x3d6686e2	0.056280978
196	0xbd68d3ca	-0.056842603
197	0x3c880227	0.016602589
198	0x3eaa0a91	0.33211187
199	0xbeb38e3f	-0.35069463
200	0x3e1e927f	0.15485571
201	0xbc338c0a	-0.010958681
202	0xbdbd71b2	-0.09250201
203	0x3d93d148	0.072176516
204	0xbe8dab04	-0.27669537
205	0xbde5dd26	-0.11223821
206	0xbe87b3bc	-0.26504314
207	0xbdfc3c0a	-0.12316139
208	0x3dba0c17	0.09084337
209	0xbcba0a31	-0.022709938
210	0x3f5b1e13	0.85592765
211	0x3ea543df	0.32278344
212	0xbf3e460c	-0.74325633
213	0xbecd0ef2	-0.40050465
214	0xbed78713	-0.4209524
215	0x3db3dd5c	0.08782455
216	0xbedf016c	-0.43555772
217	0x3eaacbaa	0.33358508
218	0xbf722025	-0.945803
219	0xbf3ded4d	-0.7419022
220	0x3c8100d0	0.015747458
221	0xbe83273f	-0.2561588
222	0x3e963140	0.2933445
223	0xbf131321	-0.57451063
224	0x3ef6c07f	0.48193738
225	0x3e8cc4ea	0.27493984
226	0xbeb72dbc	-0.3577708
227	0xbeeb24d9	-0.4592655
228	0xbf58d41f	-0.8469867
229	0xbed3d368	-0.41372228
230	0x3ea4a8e2	0.32160097
231	0xbf526b2c	-0.8219478
232	0xbef8d379	-0.4859884
233	0xbe9f3de5	-0.3110191
234	0x3f33112b	0.6994807
235	0xbf4ddf52	-0.80418885
236	0xbee7708f	-0.45203063
237	0xbf506870	-0.8140936
238	0x3f4ed8bf	0.8079948
239	0xbef6d64c	-0.4821037
240	0xbf4acb91	-0.7921687
241	0xbf28107d	-0.6565016
242	0x3de0c014	0.10974136
243	0xbe4d3bfd	-0.20042415
244	0xbf174236	-0.59085405
245	0x3f0e8d7a	0.55684626
246	0x3f403484	0.7508013
247	0xbe93ef37	-0.28893444
248	0x3e84ad51	0.2591348
249	0x3edda770	0.43291807
250	0x3dd69701	0.104780205
251	0xbf35da85	-0.7103656
252	0xbf5743c7	-0.84087795
253	0xbef25d65	-0.4733688
254	0x3f23385e	0.63757885
255	0x3e73c2d7	0.23804794

linear1.bias f4 [256]
0	0xbe1f5fc6	-0.15563878
1	0xbded9b00	-0.116018295
2	0xbf035eac	-0.5131633
3	0xbe734759	-0.23757686
4	0xbe0c67e1	-0.13711502
5	0xbe9f64e3	-0.31131658
6	0xbe9337d6	-0.28753537
7	0xbea48b20	-0.32137394
8	0xbe46dbf9	-0.1941985
9	0xbf1e62b4	-0.6186936
10	0xbf2bdaed	-0.6713093
11	0xbeb44012	-0.35205132
12	0xbde315a8	-0.11088115
13	0xbece5c3e	-0.4030475
14	0xbeba515d	-0.363902
15	0x3e2d180c	0.16903704
16	0x3f1427a3	0.5787298
17	0xbe858e44	-0.26085103
18	0xbf13d1a3	-0.57741755
19	0xbd206f68	-0.039168745
20	0xbe38ca18	-0.18045843
21	0xbd39671f	-0.04526436
22	0x3efaa432	0.48953396
23	0xbebbec8d	-0.3670391
24	0xbe8a8104	-0.27051556
25	0xbf08a048	-0.5336957
26	0xbeec282c	-0.461244
27	0xbea23cfc	-0.31687152
28	0x3c7f09a3	0.015566262
29	0xbebafe2a	-0.36522037
30	0xbe812f87	-0.25231573
31	0xbed1e31e	-0.4099359
32	0x3ddb0b65	0.10695533
33	0x3e413548	0.18867981
34	0xbdfa4e62	-0.122219816
35	0xbe4f954f	-0.202718
36	0x3e485e88	0.19567311
37	0x3d5c8d52	0.05384571
38	0xbf270ca7	-0.6525368
39	0xbee0e2e1	-0.43923095
40	0xbf29a381	-0.6626511
41	0xbe4498aa	-0.19198862
42	0xbeb968c6	-0.36212748
43	0xbe293808	-0.1652528
44	0xbe898e65	-0.2686645
45	0xbe961ba4	-0.29317963
46	0xbec296da	-0.38005716
47	0xbea30633	-0.31840667
48	0xbed7fb72	-0.42184025
49	0xbeda877c	-0.4268149
50	0xbef0643b	-0.4695147
51	0xbe6d3f9f	-0.23168801
52	0xbebd9bbc	-0.37032878
53	0xbe6ed261	-0.2332244
54	0xbeea8dd1	-0.45811322
55	0xbe5eb503	-0.21748738
56	0xbd98f5a0	-0.07468724
57	0x3f110c89	0.5665975
58	0xbf0c4871	-0.54798037
59	0xbd1d0e56	-0.03834375
60	0x3f963899	1.1736022
61	0x3ec481d2	0.38380295
62	0xbd5ca4b5	-0.053868014
63	0xbeb3f17b	-0.35145172
64	0xbeb22f5d	-0.3480176
65	0xbe8b6f64	-0.27233422
66	0xbe5dd951	-0.21664931
67	0xbde01608	-0.10941702
68	0xbeb4b15f	-0.35291573
69	0x3e17cbb8	0.14823806
70	0xbec2bef3	-0.38036308
71	0xbefb1b41	-0.4904423
72	0xbeacc101	-0.33741
73	0xbf4dc798	-0.8038268
74	0xbe4a0720	-0.1972928
75	0xbe0aa463	-0.13539271
76	0xbe545053	-0.20733766
77	0xbf36e209	-0.7143865
78	0x3f9d6007	1.229493
79	0xbf2c86ab	-0.67392987
80	0xbf2eef17	-0.6833357
81	0x3e189eb0	0.14904284
82	0xbe6a0377	-0.22852884
83	0xbefd3982	-0.49457937
84	0xbeb609d1	-0.35554364
85	0xbf2ed102	-0.6828767
86	0x3eb4a8f4	0.3528515
87	0x3cdbae7f	0.026816605
88	0xbf134de8	-0.5754075
89	0xbefa40f6	-0.48877686
90	0xbf52bc61	-0.82318693
91	0xbe84cd54	-0.25937903
92	0x3ed219ff	0.41035458
93	0xbeb51d88	-0.35374093
94	0x3e0fab9d	0.14030309
95	0xbe3e4688	-0.18581593
96	0xbcaef87b	-0.02135872
97	0xbed88819	-0.42291334
98	0xbeae9d0e	-0.34104198
99	0xbedba9ec	-0.42903078
100	0x3f2ddf1e	0.67918575
101	0xbd8bf5a2	-0.0683396
102	0xbe8a1480	-0.26968765
103	0xbf09b64e	-0.537938
104	0xbf0bfdf4	-0.54684377
105	0xbec017fa	-0.37518293
106	0xbf08aca7	-0.53388447
107	0xbe66ff26	-0.22558269
108	0xbe827480	-0.25479507
109	0x3d3a3d07	0.045468356
110	0x3f0cbc1c	0.5497453
111	0xbee60d59	-0.44932058
112	0xbe9105e8	-0.2832482
113	0xbeada176	-0.33912247
114	0xbeb22f10	-0.3480153
115	0xbe9bebe0	-0.30453396
116	0xbe854370	-0.26028013
117	0xbee11245	-0.4395925
118	0xbecdf634	-0.402269
119	0xbe85f756	-0.26165265
120	0x3edd2d61	0.43198684
121	0xbefb23d6	-0.49050778
122	0xbee8b7f7	-0.45452854
123	0xbe73d9fb	-0.23813622
124	0xbde29cb8	-0.11065048
125	0xbed5af15	-0.4173514
126	0x3ed152d4	0.40883505
127	0xbd9b0c13	-0.07570662
128	0x3dfa5cad	0.12224708
129	0xbebd850c	-0.3701557
130	0x3dd06a9b	0.101765834
131	0x3f07985d	0.5296686
132	0xbdffd193	-0.12491145
133	0xbea5617e	-0.32300943
134	0xbe3afa48	-0.18259537
135	0xbec8ae16	-0.39195317
136	0xbe9de1d1	-0.30836347
137	0xbef5041b	-0.47854695
138	0xbf51a064	-0.8188536
139	0xbee16d58	-0.44028735
140	0xbf44ea5f	-0.7692012
141	0x3dd22c60	0.1026237
142	0xbef05607	-0.46940634
143	0xbf09f39a	-0.5388733
144	0xbefe97f9	-0.4972532
145	0xbe261cdb	-0.16221945
146	0xbea24bcc	-0.31698453
147	0xbf112388	-0.5669484
148	0xbe991409	-0.29898098
149	0xbebaa38d	-0.36452904
150	0xbe6f5b39	-0.23374642
151	0xbec7e4d3	-0.39041767
152	0xbd27323b	-0.040819388
153	0xbe46e928	-0.1942488
154	0xbf0009c6	-0.50014913
155	0xbe8b2267	-0.27174684
156	0xbe144ce7	-0.14482461
157	0xbeaf71f3	-0.34266624
158	0xbe47b1c3	-0.19501404
159	0xbe509c74	-0.20372182
160	0xbf3788a5	-0.7169288
161	0xbeffcdb0	-0.49961615
162	0xbe253e3c	-0.16137022
163	0xbf1e7f13	-0.6191265
164	0xbe57553a	-0.21028605
165	0xbf0adf6e	-0.54247177
166	0x3f762f4c	0.9616592
167	0xbe93a17f	-0.2883415
168	0x3d2921b4	0.041291907
169	0xbf3f03cd	-0.74615175
170	0x3ccd19a4	0.02503664
171	0xbe3d145c	-0.18464798
172	0xbe733e08	-0.23754132
173	0x3ee72cc0	0.4515133
174	0xbec15bcd	-0.3776535
175	0xbe2f11e2	-0.17096666
176	0xbedb2072	-0.4279819
177	0xbefbc22f	-0.49171588
178	0x3f26dfb6	0.65185106
179	0xbeab0578	-0.3340261
180	0xbedad5de	-0.42741293
181	0xbe173513	-0.1476634
182	0xbf65844d	-0.89655
183	0xbcec1355	-0.028817812
184	0xbdbef7f8	-0.0932464
185	0xbe032373	-0.12806492
186	0xbed041e0	-0.4067526
187	0xbe5df47a	-0.21675292
188	0xbf7a0042	-0.97656643
189	0xbece7bde	-0.40328878
190	0xbec64239	-0.387224
191	0x3f383928	0.71962214
192	0xbe881e61	-0.26585677
193	0x3f220044	0.63281655
194	0x3dc78e2a	0.097439125
195	0x3daf7bb1	0.08568514
196	0x3e8a52e3	0.27016363
197	0xbe4ac1d1	-0.19800498
198	0xbf596a51	-0.8492785
199	0xbeb0173e	-0.34392732
200	0x3ce783e5	0.028261134
201	0xbe45b585	-0.19307525
202	0x3ec4e43e	0.38455385
203	0xbdc67404	-0.09690097
204	0x3fad2514	1.352694
205	0xbe71a07d	-0.23596378
206	0x3e6a586e	0.22885296
207	0xbf1f2089	-0.6215902
208	0xbe4e954d	-0.20174141
209	0xbf2b14e0	-0.6682873
210	0xbf022c7f	-0.50849146
211	0x3e8ad5e4	0.2711631
212	0xbe8b1d4b	-0.27170786
213	0x3eee6000	0.46557617
214	0x3e50a4d2	0.20375374
215	0x3ed91435	0.4239823
216	0xbe56761e	-0.20943496
217	0x3eab5ecd	0.33470765
218	0xbe5fe0bb	-0.21863072
219	0xbf29d521	-0.66340834
220	0xbe895831	-0.26825097
221	0xbe178e09	-0.14800276
222	0xbefd0d31	-0.49424127
223	0xbe9b89ff	-0.3037872
224	0x3ebe29a7	0.37141153
225	0x3dbb5580	0.09147167
226	0xbe26475a	-0.16238156
227	0xbec22a1e	-0.37922758
228	0xbf06e81e	-0.5269793
229	0xbeed1d72	-0.46311527
230	0xbf53900f	-0.8264169
231	0xbe837ebe	-0.25682634
232	0xbf5b9c5e	-0.8578547
233	0x3eacc47e	0.33743662
234	0xbe204e1e	-0.156548
235	0xbe852430	-0.2600417
236	0x3ef1f561	0.47257522
237	0xbee55d64	-0.44797814
238	0xbeb0ed2b	-0.34555945
239	0xbf0eb6df	-0.5574779
240	0xbf02ac81	-0.5104447
241	0xbd789a72	-0.060694166
242	0xbdd39a7e	-0.103322014
243	0xbe959bb2	-0.2922035
244	0xbe8ada3c	-0.27119625
245	0xbf2897e1	-0.6585675
246	0xbe255acf	-0.16147922
247	0xbca29957	-0.019848509
248	0xbd057d77	-0.032590356
249	0xbefbaf9c	-0.49157417
250	0x3f355346	0.7083019
251	0xbed227e1	-0.4104605
252	0xbe22fd78	-0.15917003
253	0x3d0f9c00	0.035060883
254	0xbf4110b3	-0.75416106
255	0xbebc6991	-0.3679929

linear2.weight f4 [3, 256]
0	0xba6e525c	-0.0009091252
1	0xbe14cb8d	-0.14530773
2	0xbeaef71c	-0.34172904
3	0xbb0ba0c2	-0.0021305536
4	0xbeb180a7	-0.34668466
5	0xbc9ef0be	-0.019401904
6	0x3cb7e86a	0.02244969
7	0xbd1d6539	-0.03842661
8	0xbc8912be	-0.01673257
9	0xbe0eb0f9	-0.13934697
10	0x3c8cd496	0.017191213
11	0xbcbab97a	-0.02279352
12	0x3e453534	0.19258577
13	0x3b8af2eb	0.004240384
14	0xbd949738	-0.07255405
15	0x3dfc2e8e	0.12313567
16	0x3e295353	0.16535692
17	0x3b978b28	0.004624743
18	0xbd1f0824	-0.038826123
19	0xbe00bd1c	-0.1257214
20	0xbe380b43	-0.17973046
21	0x3eda199b	0.4259766
22	0x3eb4d418	0.35318065
23	0xbe97612d	-0.29566327
24	0xbcd105cd	-0.025515461
25	0xbd513ccb	-0.051083367
26	0x3c1c4acb	0.009539316
27	0xbaaa301a	-0.0012984306
28	0x3dbf17df	0.09330725
29	0xbb9ad55b	-0.004725141
30	0xbda7a456	-0.081856415
31	0xbb68bfe5	-0.0035514769
32	0xbd356865	-0.04428901
33	0xbdad6b68	-0.08467752
34	0x3e1e50d7	0.15460525
35	0x3c608f7a	0.0137060825
36	0x3edb0824	0.42779648
37	0xbf1c3ac2	-0.6102716
38	0xbe1653dd	-0.14680429
39	0xbdbb4242	-0.09143497
40	0x3d7e9dce	0.062162213
41	0x3bc5594f	0.0060226093
42	0xbbc51570	-0.0060145184
43	0xbdf4ebfb	-0.11959072
44	0x3e09db87	0.1346265
45	0xbc5d27c7	-0.013498253
46	0xbf094e01	-0.5363465
47	0xbe3cf700	-0.18453598
48	0x3eabc1c1	0.3354626
49	0x3d75e2c2	0.060030706
50	0x3e2d6b6f	0.16935514
51	0xbcd8b661	-0.026454153
52	0xbeae731a	-0.3407219
53	0xbe0c88ce	-0.13724062
54	0xbdb16907	-0.086626105
55	0xbe9932a9	-0.29921463
56	0xbccc974c	-0.024974488
57	0x3e810ce5	0.2520515
58	0xbe18bd47	-0.14915954
59	0xbe38be17	-0.18041264
60	0x3ec44394	0.38332808
61	0x3df4e708	0.11958128
62	0xbd6acc2e	-0.057323627
63	0xbe936f98	-0.28796077
64	0xbdfbc693	-0.122937344
65	0xbdbc159f	-0.091838114
66	0xbe601c74	-0.21885854
67	0x3c75ff65	0.015014504
68	0xbe1b67c9	-0.1517631
69	0x3e0e6568	0.13905871
70	0xbdad3f2d	-0.084593154
71	0xbb8ce4ba	-0.0042997273
72	0xbd60eb59	-0.054911945
73	0x3d0e2624	0.034704342
74	0x3d3672ce	0.04454308
75	0x3dcb8949	0.099382944
76	0xbe2f1301	-0.17097093
77	0xbda105f8	-0.078624666
78	0x3ef18311	0.47170308
79	0x3c66c2f3	0.014084565
80	0xbe7e2ead	-0.24822493
81	0xbe958565	-0.29203334
82	0xbe0f6887	-0.14004718
83	0x3c9f491e	0.019444045
84	0x3bf87f2e	0.0075835204
85	0x3d532080	0.051544666
86	0x3eed97a5	0.46404758
87	0xbcb9a314	-0.02266077
88	0xbe53bd7c	-0.20677751
89	0xbc4b4b15	-0.012408038
90	0xbcc6c061	-0.024261655
91	0xbb887d3a	-0.004165319
92	0x3e8eaed2	0.27867752
93	0xbba109ad	-0.0049144835
94	0xbca2b907	-0.019863619
95	0x3db16f37	0.08663791
96	0xbf72167e	-0.9456557
97	0xbeb94513	-0.36185512
98	0xbd0a1740	-0.03371358
99	0xbdffd2be	-0.12491368
100	0x3ecc6f9d	0.39928904
101	0xbede2b75	-0.4339253
102	0xbf2d5ee4	-0.67722917
103	0xbe200b73	-0.15629368
104	0xbf15fdec	-0.5859058
105	0xbe54827b	-0.207529
106	0x3c5864cf	0.013207628
107	0xbd6f853d	-0.058476675
108	0xbdc6a4e4	-0.09699419
109	0x3d392b45	0.04520728
110	0x3f2a6908	0.66566515
111	0xbd23159b	-0.039815526
112	0xbce075fc	-0.02740001
113	0xbce3a187	-0.027786983
114	0xbf0bd3cb	-0.54620045
115	0xbe9961a4	-0.29957306
116	0x3e9906fd	0.29888144
117	0xbdea0e06	-0.11428456
118	0xbf085760	-0.53258324
119	0xbec4159d	-0.3829774
120	0x3db7c8ec	0.0897387
121	0xbbc56c09	-0.0060248417
122	0x3e64180c	0.22274798
123	0xbe9c8305	-0.3056871
124	0xbe37cb91	-0.17948748
125	0xbe892c4e	-0.26791614
126	0x3f068759	0.52550274
127	0xbe9908a4	-0.29889405
128	0xbe1faec9	-0.15594019
129	0xbe027226	-0.12738857
130	0x3f0d5139	0.5520206
131	0x3edacd0f	0.42734572
132	0xbe148d70	-0.14507079
133	0x3c3e9360	0.011631817
134	0xbd981527	-0.074259095
135	0x3d45a796	0.048255526
136	0x3e1a696c	0.15079278
137	0xbd6ae9cd	-0.057351876
138	0x3e7128d2	0.23550728
139	0xbce3fcba	-0.02783047
140	0x3c5154f0	0.012776598
141	0x3e1aa4fb	0.15101998
142	0xbbb32404	-0.00546694
143	0x3bea2919	0.0071460125
144	0x3cbecbaf	0.023290483
145	0x3e711e0c	0.23546618
146	0x3c81cf0c	0.015845798
147	0xbec74d73	-0.38926277
148	0x3b78ab39	0.0037943854
149	0x39ed234c	0.0004523046
150	0xbf13e8d1	-0.57777125
151	0xbe003a68	-0.1252228
152	0x3ea15384	0.3150903
153	0xbbc7f1a9	-0.006101806
154	0x3cbe0c10	0.023199111
155	0x3cbca007	0.023025526
156	0xbe395fec	-0.18102998
157	0xbce082fe	-0.027406212
158	0x3b0bd862	0.002133869
159	0x3cd0e544	0.025499947
160	0xbd0a6b3f	-0.033793684
161	0xbbec42ca	-0.0072101103
162	0xbd4181fc	-0.047243103
163	0x3d057b8a	0.03258852
164	0xbf32616d	-0.6967991
165	0x3c35af20	0.011089116
166	0x3eab9e2b	0.3351911
167	0xbcc9b876	-0.02462409
168	0xbde8b910	-0.11363423
169	0x3e2f1b28	0.17100203
170	0x3e116823	0.14199881
171	0xbd012452	-0.03152878
172	0xbd05fd72	-0.032712407
173	0x3e52cd26	0.2058607
174	0xbc8d0878	-0.017215952
175	0xbcf22a99	-0.029561328
176	0xba8ea9f8	-0.0010884395
177	0xbde4443c	-0.11145827
178	0x3e77d27f	0.24201392
179	0xbb234157	-0.0024910772
180	0xbe93a19e	-0.28834242
181	0xbd1568e7	-0.036476996
182	0xbcb13067	-0.021629525
183	0x3da6edf0	0.08150852
184	0xbb96c377	-0.004600938
185	0x3d2ce849	0.042213712
186	0xbe0b3d96	-0.13597712
187	0xbef9d346	-0.48794
188	0xb9a3b27a	-0.00031222758
189	0xb73de8b0	-1.1319455e-05
190	0xbe2c5f78	-0.16833293
191	0x3ee13611	0.43986562
192	0x3ea4e929	0.32209137
193	0x3f481be3	0.7816755
194	0xbf1483fc	-0.5801389
195	0x3b0e0b00	0.0021674037
196	0x3cfe9378	0.031076178
197	0xbe3e62ef	-0.18592428
198	0x3c96c7d1	0.018405827
199	0x3daac45f	0.08338236
200	0xbf36db88	-0.7142873
201	0xbcb0fc88	-0.021604791
202	0xbbc6f7bf	-0.006072014
203	0x3bcbc657	0.0062187123
204	0x3ecfc7f5	0.40582243
205	0xbd83236c	-0.064032406
206	0x3d0842b6	0.033266746
207	0xbc9733e2	-0.018457357
208	0xbe29dad1	-0.16587378
209	0xbd480860	-0.048836112
210	0xbe40865c	-0.18801254
211	0x3f19504c	0.5988815
212	0xbc077118	-0.00826671
213	0x3e621dae	0.22081634
214	0x3f071673	0.5276863
215	0x3e8ee133	0.27906188
216	0xbeadffcf	-0.3398423
217	0x3edf969c	0.43669593
218	0x3d036600	0.032079697
219	0xbd0e578f	-0.03475147
220	0xbf51e2c0	-0.8198662
221	0xbca72beb	-0.020406684
222	0x3ec02451	0.37527707
223	0xbd9359bd	-0.071948506
224	0x3f352a47	0.70767635
225	0x3dba9a2d	0.09111438
226	0xbd6964e3	-0.05698098
227	0xbe49077f	-0.19631766
228	0xbeacbe3f	-0.33738896
229	0x3df808c4	0.12111047
230	0xbe4b41f0	-0.19849372
231	0xbce4e2e8	-0.027940229
232	0xbc4ef1db	-0.012630905
233	0x3eeb52df	0.45961663
234	0xbf6256af	-0.8841352
235	0xbcdc3233	-0.026879406
236	0x3e7031eb	0.23456542
237	0xbdae7be3	-0.08519723
238	0xbc30f6e5	-0.010801052
239	0xbe09062c	-0.1338126
240	0xbb019705	-0.0019773853
241	0xbe34472a	-0.17605272
242	0xbedf473f	-0.43609044
243	0x3c9f8b40	0.01947558
244	0xbe7f4155	-0.24927266
245	0x39e8d1ed	0.00044406895
246	0xbef7ab51	-0.48372892
247	0xbed0f47e	-0.40811533
248	0xbdada3ac	-0.084784836
249	0xbc61f7e6	-0.013792014
250	0x3f155554	0.58333325
251	0xbf03069a	-0.5118195
252	0x3cb051a3	0.021523302
253	0x3cf94d83	0.030432468
254	0xbe065531	-0.13118435
255	0x3c381ef7	0.011237851

linear2.bias f4 [3]
0	0x3f1bc9f7	0.6085505
1	0x3e2d5adc	0.16929191
2	0x3d47383a	0.048637606
