NN/model/model.pth (torch, 16799 bytes, 4 tensors)

linear1.weight f4 [256, 11]
00000000: 0fbc 153f 41ee f83e 0745 25bf 1264 83be
00000010: dbb3 76bd 0abf a5bd ad09 093d b734 403e
00000020: b9d4 6a3e 633a 573e 039e 62bc 3707 bfbe
00000030: b961 58be e912 323e b60a bbbe e202 973e
00000040: 5a9c ac3e 0a71 01bf 6c22 b5be 7951 6f3e
00000050: 5372 29be 6ffb b4be 9735 0a3f 0c54 0a3f
00000060: f60e 933d b8dc 8ebe a5cf cfbc f352 ebbd
00000070: 2a92 013e 6aa0 ce3e deef 363e 99fd 8f3e
00000080: 5ba5 103c 8e35 27be 58a5 073f c134 8dbe
00000090: 0948 cbbe 1201 6c3e 5b31 bdbd 7bca 6a3d
000000a0: 6733 1cbe 0feb a0bc ae18 b93e bf2e 803d
000000b0: 0f81 8dbd a97d cdbe bf12 a3be df14 373e
000000c0: c546 6b3e f2de 0b3e e08c 5bbe 6ef8 babd
000000d0: d507 da3c 48c7 123d f54d 99bc 57b6 61be
000000e0: ce74 32be 8035 8d3e a976 5f3d bece 103e
000000f0: 0c51 94bd 0b53 da3e 8017 af3e 6fa4 dbbe
00000100: 8930 a1be 0b0b 903d b6ea 9bbe 561d 683d
00000110: c506 333e ff22 9abe e599 4c3e cdab 293e
00000120: 9e57 b4be 8294 8fbe 9496 18bc 0c79 8ebe
00000130: 1cda a1be 67c3 55bd bbf7 1e3f 5da2 babd
00000140: 0a45 4fbe 2cbe 49be f0cd 26be 9cc6 7ebe
00000150: 264e 973d 86e4 8bbd da3d 4e3e fefc 5b3e
00000160: 8747 8a3e 4ec3 78be eb7a 87be 2447 073e
00000170: 1e04 55be cc2a bebd f444 86be e40f 9a3d
00000180: 3a43 cebd b8d9 ee3c 6662 83be 85b5 9f3e
00000190: befd b83d 9077 96be ae0c 953d 6a57 9a3d
000001a0: 6366 923d 29d7 a5be 3144 f0bd 2d3e 82be
000001b0: 89e1 93be f3b6 0c3e 7a5b 333e a1ed 033f
000001c0: df10 16bf 28bd 7bbe da44 02bd 7713 903d
000001d0: 5717 893d 299c a03e 7a4a 7b3e 1052 fc3d
000001e0: 323f b03c b7c0 36be 0647 073f abd1 bdbe
000001f0: 32e6 21be d641 9cbc 2f20 763c 14bf a2be
00000200: d644 c6bc 8a08 39bd afb2 0d3e 54ac 64be
00000210: f607 10be fec7 073f 5558 17bd 1232 843e
00000220: fee3 8dbd c873 4ebe 5839 80be 5e09 cc3e
00000230: b20c d23d 59de f73b ab47 0cbe 1a38 a83e
00000240: 4044 84be bf05 563e f370 d13e 3515 c03e
00000250: 74d5 74be d3db c3bd 240e 88be 80f4 76be
00000260: 7e5d ce3e 2073 813e ac7e 023f e2bc 01be
00000270: fb33 afbe ae7d 96be 1e78 9dbe 6aec 37bd
00000280: 43a3 68bc e4f9 163e a2ed 503e 5ca8 a43d
00000290: 2ffe 8cbd 8ad7 993e aae5 f63d 6036 d5be
000002a0: 5248 653e 1128 bf3d 74c8 a5be 4312 ad3d
000002b0: 3944 e2be 7b49 c33d 4462 6d3d df4a 4ebe
000002c0: 5dc1 8cbd 1ab7 083f 58b5 e23e f3e1 95bd
000002d0: 3891 623e 4558 80be 2c75 f03c 5220 233e
000002e0: 25fb 80be 6178 553e fb68 c5bd dcd2 273f
000002f0: 65d0 bf3e 4852 0ebf 4362 19bd ca21 6d3e
00000300: 8912 8cbc 4089 8dbe c0fd 013d cb69 8abe
00000310: bac2 203c 5811 853e bb95 c33e 87ad e93d
00000320: f901 143d 976f 1b3c 4fc7 a7bd 6864 a03d
00000330: 4f2c 763d 5da4 11be abf3 7f3e 08f4 3a3d
00000340: 04c5 e13d ae5b bf3e 6eb6 863e 8e84 f13e
00000350: 470a 083e 0654 2e3e 606d 843d dd06 a3be
00000360: 0594 70be 7ab8 a2bd 5852 98bc 20e5 a13e
00000370: 9f47 68bd 8047 d0bd 8ca7 40be fe45 063e
00000380: 2c24 c13d 5722 f53d 4b5b 7dbe 8e80 583c
00000390: 4629 45be 234b 00be 214e 13bd a1bf 203e
000003a0: 3d01 dabe 850c 0e3f 8906 03be 51a5 853d
000003b0: 23cc 043e 230a 7f3b 20a4 b33e f44d c83d
000003c0: 225f afbd 2460 6c3d 7052 b03e 7505 a7bd
000003d0: 088c d3bd 354e 1cbe 3755 6fbc 2cce adbe
000003e0: 81d3 013e eedf 3bbe 9d7d 21be 5307 ca3e
000003f0: 8643 7cbe e9bc ba3d 0669 18bf ffa7 1f3f
0.5849008 0.48619273 -0.6455845 -0.25662285 -0.060230117 -0.080930784 0.033456493 0.18770109
0.2293271 0.21018367 -0.013831618 -0.37310192 -0.21131028 0.17390026 -0.3653161 0.29494387
0.33713037 -0.5056311 -0.35377824 0.23370923 -0.16547517 -0.3534808 0.5398802 0.54034495
0.07180588 -0.2790277 -0.025367567 -0.11490431 0.12653413 0.4035676 0.1786494 0.28123167
0.008828486 -0.16329023 0.5298667 -0.2757931 -0.39703396 0.23047283 -0.092379294 0.057322007
-0.15253983 -0.019643335 0.36151642 0.06258916 -0.069093816 -0.40134934 -0.3185024 0.17879055
0.22976215 0.13659266 -0.21440458 -0.091294155 0.026615063 0.03583458 -0.01871393 -0.22042213
-0.1742737 0.2757988 0.054556523 0.14141366 -0.07242021 0.42641482 0.34197617 -0.4289889
-0.31482342 0.07033356 -0.30452508 0.056668602 0.17483051 -0.30104825 0.19980581 0.16569443
-0.35223097 -0.2804299 -0.009313244 -0.27826726 -0.31611717 -0.052188303 0.62096757 -0.091129996
-0.2024118 -0.19701451 -0.16289496 -0.24880451 0.073879525 -0.06830697 0.20140782 0.21483228
0.27007696 -0.24293253 -0.26460966 0.13210732 -0.20802352 -0.092855066 -0.26224482 0.07522562
-0.10071416 0.02915655 -0.2566101 0.31193176 0.090327725 -0.29388094 0.07277809 0.07536204
0.07148435 -0.32390717 -0.117317565 -0.2543806 -0.28883007 0.13741665 0.17515364 0.5153447
-0.58619493 -0.24583876 -0.031803943 0.070349626 0.06693905 0.3136914 0.2454013 0.1232034
0.021514509 -0.17846952 0.5284275 -0.37074026 -0.15810469 -0.019074362 0.015022322 -0.31786406
-0.024202745 -0.04517416 0.13837694 -0.22331363 -0.14065537 0.5303954 -0.036949474 0.2581945
-0.06928252 -0.20161355 -0.2504375 0.39850897 0.10256328 0.0075643477 -0.13699214 0.32855302
-0.2583332 0.2090063 0.40906486 0.3751618 -0.23909551 -0.095634125 -0.26573288 -0.24116707
0.40305704 0.25283146 0.50974536 -0.1266971 -0.34219345 -0.2939276 -0.30755705 -0.044903196
-0.014199081 0.14743763 0.2040315 0.080399245 -0.06884419 0.30047256 0.12055524 -0.41643047
0.2239087 0.09333814 -0.32379496 0.08450749 -0.44192675 0.095355 0.05795504 -0.20145749
-0.068728186 0.5340439 0.4427898 -0.07318487 0.22125709 -0.25067344 0.029352747 0.15930298
-0.25191608 0.20846702 -0.09639164 0.6555612 0.3746368 -0.555943 -0.037447225 0.23157421
-0.017098682 -0.27643776 0.031736135 -0.2703384 0.009812051 0.25989795 0.38200173 0.11410051
0.036134694 0.009487054 -0.08192312 0.07831651 0.06010085 -0.14222856 0.24995296 0.045642883
0.11023906 0.37374634 0.26311058 0.47171444 0.1328517 0.1702424 0.06466174 -0.31841174
-0.23493965 -0.07945342 -0.018593952 0.3162012 -0.05670893 -0.101698875 -0.18813914 0.13112637
0.09430727 0.119694404 -0.24741857 0.013214244 -0.19254026 -0.12528662 -0.03596318 0.156981
-0.4257907 0.55487853 -0.12795462 0.06525672 0.12968497 0.0038915954 0.35086155 0.097804934
-0.08563067 0.057708874 0.34437895 -0.08155338 -0.10329443 -0.15264209 -0.014607719 -0.3394636
0.12678339 -0.18347141 -0.15770574 0.39458713 -0.24635133 0.09118063 -0.59535253 0.62365717

linear1.bias f4 [256]
00000000: 0004 3c3d aa18 743e cf5b 07be a56f 2e3d
00000010: 308e ca3d 9edf 3fbd bfbf 923e 908d 9bbe
00000020: 141c d7be 894f ec3d fbac 88bd fdce a03e
00000030: 82fc 1abe c46b 3ebe 329c bb3d c57e 093e
00000040: caf9 2a3d 80c2 263e 6f1a 1ebe 589d c4bd
00000050: 2659 20be e1d1 973d 1d1d aebd 1fc2 613e
00000060: cc68 e23d b40d c83e b930 843e 4c99 373e
00000070: 7b68 003c 70ec 353e 6ea7 73be 8ea0 53bd
00000080: e1c2 bd3d 99a3 8a3d be68 28be 12fd 23bd
00000090: e58c 85bd a4e4 eabd ea31 213d 1d84 1a3b
000000a0: bee7 283e 85cc 273d c821 d03d 0ec6 8ebd
000000b0: 1d7f a73e 5aa1 9b3c 244c b93d 1c32 8cbd
000000c0: 87bf d93d 9c71 96bd d506 3d3e 29b6 2ebe
000000d0: b13e 863c 3d88 04be b233 233e f250 1abd
000000e0: c515 603e a178 c5bc a4ec 81be ec0c 25be
000000f0: 82c5 d1bc 6593 d9bb d4bf 6abe e96a 8fbe
00000100: 077a cebe 5aa8 743e d43c 1fbd 52d5 e6bd
00000110: 9da4 653e 79fe bf3c b5e7 97bd b204 b4bc
00000120: 600a 5d3e fdd2 4bbe 5981 87bb 880a b5bd
00000130: 746e b2bd c06e 10be e2b1 41be d958 043c
00000140: c407 c53e 8040 b3bc fe09 433e fea4 47bd
00000150: 7725 32be bc4f 2dbe bdf1 55bd a32e 033e
00000160: 9aa5 91be 40fe 463e 1283 98bc 0e39 6f3e
00000170: b956 d0bd 0e48 ac3c 3e72 43bd 0698 93be
00000180: bb9b b53d 3562 ff3d 8539 553e 64ba 9b3e
00000190: 88db 1dbe ba00 d7bd 094e a53d 732f 90be
000001a0: 2d07 74be 0991 a9bd 1ecd 1abe e82a 53be
000001b0: f44c 2fbe 7947 583e 8db7 dcbd 012d 87be
000001c0: a518 8bbd 6945 723e 2eec 35be f32c e8bd
000001d0: 8e9a 073d b29c 66bd 5081 9b3c b564 fd3c
000001e0: df16 733e 20a9 cf3b d253 f7bc 59b9 b7bd
000001f0: 89b7 d13d 6e17 9ebe c16e 813e 5bad c53d
00000200: 17ad 033e f5ff a1bd 51eb 92be 63eb 5bbe
00000210: 1fae 8ebc 62b3 86bd 4258 8c3c eb36 3fbe
00000220: ecde 10be 9324 b73c 2e69 93bd 3bd1 023e
00000230: bb14 6a3d 5c0d a2bc 7764 83be adf2 59bb
00000240: 2e80 a63e 7492 61be 8ecd 78bd 89d2 3abe
00000250: d3a6 a4bd 32fa 25be 91b2 1dbe 0757 62be
00000260: 678b 13be 18f2 d1bc fefc 743e 9ca8 96be
00000270: e78a 62be 2003 60be ec3e 31be bf15 213e
00000280: a248 9b3c 5d3c bb3c 7162 71be d529 503d
00000290: 5af4 bcbd 91b1 fbbc 6377 81bd 8a05 973e
000002a0: 655a f43d b16b f0bd 58f0 16bc 2a74 17bb
000002b0: ea60 c23d 5ae7 d63c a904 ce3c 89c7 973e
000002c0: 17dd 8bbe e283 e4bc 9deb 623e b293 863e
000002d0: 71fb 44be 91d9 203c 8d55 dabd 05bb 853c
000002e0: 6ed0 3f3e 7b3e 09bc e97d 56bc 119e 60bd
000002f0: a4bb 833d 6b45 34be c46a 87be 465b c43c
00000300: e8bd a7bc ec30 8fbe 6fe6 023e b05b 8ebd
00000310: a6f1 35bd aa19 17bd 19da aabc 63f9 09be
00000320: 9a76 6c3d bb0b 213e bb36 22bc 0cfe 863e
00000330: 3256 7a3e ad83 37be e23b 9b3e 06c2 36be
00000340: 33bf 64be e54d 4dbe 032f 96bd b9af 9d3e
00000350: 88d9 18be 15e6 043f 1167 2fbd 51fb 9bbe
00000360: 44ab a13e 9302 b93c 022f 86bd d1d8 853d
00000370: da97 c3bd 9c1c 793e 6cd2 09bb b19c 47bd
00000380: e4aa 793d 7db4 9c3d a6f1 4cbe 9827 223e
00000390: daec 8b3c 3bfa 0cbd 0fb3 37be 6434 153e
000003a0: 9f3a 09be b358 2c3e 125b 97be 7ddf 57be
000003b0: 5956 bd3e 0eb1 9f3c 91d9 403e f09f 7dbd
000003c0: 7f1d febc 039a 1b3e e724 53bd 94d1 28bd
000003d0: 0a60 823e f997 bf3e 3c26 d43d 259c 223e
000003e0: 9538 293d 648f f1bc 9ffb 36bd 9fbf 52bd
000003f0: 60b3 eb3c 3ac7 3c3e 7dfc bc3d 3d95 88bd
0.045902252 0.23837534 -0.13218616 0.04258694 0.09890401 -0.046844117 0.28661916 -0.3038144
-0.4201361 0.115386076 -0.066736184 0.3140792 -0.15135387 -0.18595797 0.09160651 0.13427265
0.041742124 0.16285133 -0.15439771 -0.096003234 -0.15659007 0.07413078 -0.08501647 0.22046708
0.11055145 0.39072955 0.25818422 0.17929572 0.00783741 0.17765975 -0.23794338 -0.05166679
0.09265686 0.06769485 -0.16446206 -0.04003627 -0.06521014 -0.11469391 0.039354242 0.002357728
0.16494653 0.04096653 0.10162693 -0.0697137 0.32714167 0.018997837 0.09047726 -0.06845495
0.10632234 -0.07345888 0.18459637 -0.17061676 0.016387315 -0.12942596 0.15937689 -0.03767485
0.21883304 -0.024105372 -0.25375855 -0.1611821 -0.025606874 -0.0066398853 -0.22924739 -0.28011253
-0.40327474 0.23892346 -0.03887637 -0.11271156 0.22426076 0.023436772 -0.074172415 -0.021974895
0.21585989 -0.19904704 -0.0041352925 -0.08839899 -0.087124735 -0.14104748 -0.18915513 0.008077824
0.38482487 -0.021881342 0.1904678 -0.048741333 -0.17397104 -0.16924948 -0.052232493 0.12810759
-0.28446656 0.19432926 -0.018617187 0.23361608 -0.10172791 0.021030452 -0.04771637 -0.28826922
0.08867594 0.124699034 0.20822723 0.30415642 -0.15415776 -0.104981855 0.08071525 -0.281612
-0.23830862 -0.082796164 -0.15117308 -0.20621836 -0.17119199 0.21121015 -0.10777197 -0.26401523
-0.0679181 0.2365929 -0.17765877 -0.113366984 0.03310638 -0.05630178 0.01898256 0.03093181
0.23739193 0.0063373 -0.030191336 -0.08970899 0.10240085 -0.3087725 0.2527981 0.096522056
0.12858997 -0.07910148 -0.28695157 -0.21476512 -0.017417012 -0.06577183 0.017131928 -0.18673293
-0.14147538 0.022356307 -0.07197796 0.12775128 0.057148676 -0.01978176 -0.25662586 -0.0033256218
0.32519668 -0.22028524 -0.060742907 -0.18244375 -0.08039632 -0.16208723 -0.15400149 -0.22103511
-0.14408647 -0.025628135 0.23924634 -0.29425514 -0.221233 -0.21876192 -0.17309159 0.15730952
0.018955532 0.022855932 -0.23572709 0.050821144 -0.09226294 -0.030724319 -0.06321599 0.29496413
0.11931304 -0.117392905 -0.009212576 -0.002311001 0.09491141 0.026233364 0.025148707 0.2964442
-0.27317116 -0.027894918 0.22160192 0.26284558 -0.19236542 0.009817497 -0.10660849 0.01632453
0.18731853 -0.008376713 -0.013091543 -0.054838244 0.06432274 -0.17604606 -0.26448643 0.023969304
-0.020476297 -0.27967012 0.12783216 -0.06951082 -0.044419907 -0.03688971 -0.02085595 -0.1347404
0.057730295 0.15727131 -0.009900744 0.26365697 0.24446943 -0.17921324 0.30319124 -0.17847452
-0.22338562 -0.20049246 -0.073331855 0.30798128 -0.14926732 0.5191358 -0.0428229 -0.30465177
0.31575978 0.022584235 -0.06551935 0.06535495 -0.09550448 0.2432732 -0.0021029962 -0.048733417
0.06095399 0.07651613 -0.20014057 0.15835416 0.017080713 -0.034418326 -0.17939399 0.14570767
-0.13401268 0.16830711 -0.2956167 -0.21081348 0.3697994 0.019493606 0.18832995 -0.061920106
-0.031019924 0.1519547 -0.051548865 -0.041215494 0.25463897 0.37420633 0.10358855 0.15879877
0.041313726 -0.02948732 -0.04467356 -0.051452275 0.028772056 0.18435374 0.09227846 -0.0666909

linear2.weight f4 [3, 256]
00000000: 403b 56be 5ef3 963e a0fa 91be 11fb f73d
00000010: 42d6 283e 0a6b 433e 8570 433e 4f2e bdbb
00000020: 5173 29bd caf3 13be 32a5 0bbe 14e2 623e
00000030: 608c 273e 65ca 03bf a359 42be a681 65bd
00000040: 9376 2fbe 4ede 60bd 2594 8fbe 14a3 97be
00000050: bb62 b7bb 5236 a0bd 086e 96be 5d30 8cbd
00000060: 2f44 18be ccf4 743e cbfb 863e 74b5 90bd
00000070: 8c6a 493e d6fd 813e d5d2 4ebe 2b33 8e3c
00000080: 36b1 8fbe 2795 15be d45a e6bc ef4d d7bd
00000090: 185f ebbd ac0d 45be db9b fcbd d5a9 acbd
000000a0: 95f5 6c3e cc8c 81bc 8383 35be cabf a2be
000000b0: 3739 923e 0bcb fc3d 39aa af3d 3dcd d8be
000000c0: b5cd ee3e dd96 593e 504a 3dbe 8605 21be
000000d0: 3e55 b6be 5ed6 9bbe 797c 113e fcad edbe
000000e0: 7608 aa3e 9990 01bd 4fd6 b23b 41ba 3abe
000000f0: 4087 923d 0dc1 83be 2b99 3cbe 5c01 10bd
00000100: a848 273c ec97 28bb 663a 103c cc81 abbb
00000110: 2105 8d3d 8a35 81be bf67 583e bf35 a23e
00000120: 8062 623e cf95 a33e 0387 873e 0812 a3be
00000130: 7fff a5be 26df ed3c 4fb7 0fbe a776 893c
00000140: 0497 233e 20e5 98bd 3d39 bebd 6387 17be
00000150: 82e3 02be 2e3c f1be 175b 173f f416 3dbe
00000160: 7894 ad3c 90e9 7c3e 7f5f 9cbe 6e16 f0bc
00000170: a747 963e c58f 74be 413d c83d df8f edbc
00000180: ee3d a8be 1457 6e3e d6a6 4d3e 344f 813d
00000190: 2dd9 8dbd fc37 bcbe 2787 dfbd b3df 59bd
000001a0: 1728 97bc 2ceb dabe 577f d1be 362c a53b
000001b0: c3bd 853e b255 a3be e043 31be 0967 3ebe
000001c0: ca46 c0be 6b3c 653e b3e2 21be 0021 8fbe
000001d0: 0da9 1d3e a485 803e f081 94bc 095e 30be
000001e0: fe3c 9f3e 7039 613e ef21 71bd dff0 a93e
000001f0: 3135 09be 5b06 4b3d 1f23 7b3e e9cf 04be
00000200: a43e 42bd 2037 34be 621e 57be 8ae8 bfbd
00000210: ae4c ffbd 50be 773e 937c 95bd 5189 1cbd
00000220: b8cc a73e cc30 cbbd f8ff 70bd a05d 00be
00000230: 085d 15bb 9fd6 263e 684a 4abe 48a6 4abe
00000240: 1429 bf3e f439 13be 76cd 0dbe 3aeb 7cbe
00000250: dd80 5cbe 420d afbe 8689 97be 193f dabc
00000260: 6c80 283d 5fcd 1abe 0c29 183e 9627 83be
00000270: 8eb8 2fbe e351 3dbe 31c9 553e 3cfa 93bd
00000280: 4f72 3d3e caeb 40bd d35b 0f3d 1cb9 cdbd
00000290: 84a3 01be 1654 9bbe e632 c1bd cdd7 3b3e
000002a0: e556 8c3e 4c12 0ebe c428 aa3c 8b8d ebbd
000002b0: c813 89be 5b42 933d 1cdd 80bb 076e 0d3e
000002c0: e83c 74bd b02c d9bd 987e a33b 1668 a13c
000002d0: d0b3 88be 1657 76bd 14a5 94be 9d2e 883e
000002e0: 9fa9 1ebd 0a17 80be fc8e b93d 7cb0 943e
000002f0: d6d5 34be 5fb9 58be f6db ecbc 3155 c63e
00000300: 5191 9fbe d700 dfbe 96b5 35be 4e73 3fbd
00000310: 44fb 04be 88cc 7e3e 3775 203e edc0 d1be
00000320: 788a 803e a7bf 9f3e 5d57 39be ff4f 303e
00000330: 4202 cc3d 2060 0bbe e079 113e 4c26 81be
00000340: 1fa3 19be 0856 79bd 869e 913e 2ec2 b43e
00000350: 7c9d 25be e5f6 793e 8931 51bc 1ce9 9ebe
00000360: 38d8 6d3e 7db7 f43d 52c7 95be 6cc9 63bd
00000370: d360 14bd 4b97 5b3e 0bb8 6ebe 6d92 673e
00000380: c381 dabd 1e5c 91bd 9617 e23d 4d49 0a3e
00000390: e398 bdbe 50ad 3b3e 43f8 abbe 751c b93e
000003a0: 778f cbbe de9f 203d d49b 143d c2e4 8dbc
000003b0: 2a96 633e b41a b5be a2ba d63c b160 96bd
000003c0: eb29 fa3d 33da 22bd 842c 833d b4f3 3fbe
000003d0: 7c71 573e 9441 903e df6c 7f3e 49ae afbd
000003e0: ddf3 24be c72f 15be 5ad6 a63e 18e0 76bd
000003f0: 87b9 89be 0bfe 0a3e 4201 f3bc b0f1 d13d
-0.2092104 0.2948255 -0.28511524 0.12108434 0.16487983 0.19083801 0.19085892 -0.0057733427
-0.04136974 -0.14448467 -0.13637236 0.22156554 0.16362143 -0.51480705 -0.18979506 -0.056031846
-0.17135076 -0.054899506 -0.28042713 -0.29616606 -0.0055964864 -0.07822861 -0.29380822 -0.06845162
-0.1486976 0.23921508 0.26363978 -0.070658594 0.1966955 0.25388974 -0.20197614 0.017358383
-0.2806489 -0.14607678 -0.028119482 -0.105129115 -0.11492747 -0.19243497 -0.123344146 -0.084308304
0.23140557 -0.015814207 -0.17725949 -0.31786948 0.28559276 0.12343415 0.08577389 -0.42344084
0.46641317 0.21248956 -0.18485379 -0.15724763 -0.3561191 -0.30436987 0.14207639 -0.46421802
0.3320958 -0.03163204 0.0054576765 -0.18235113 0.07154703 -0.25733224 -0.18417804 -0.035157546
0.010210194 -0.0025725318 0.008802986 -0.005233979 0.06885744 -0.2523616 0.21133326 0.3168163
0.22107887 0.31950232 0.26470193 -0.31849694 -0.3242149 0.02903707 -0.1403477 0.01678021
0.15975577 -0.07465577 -0.09288261 -0.1479774 -0.127821 -0.47116226 0.5912337 -0.18465787
0.02118896 0.24698472 -0.30541608 -0.02930757 0.2935154 -0.23882969 0.09777308 -0.028999267
-0.3285975 0.23275405 0.20083174 0.06313935 -0.069261886 -0.36761463 -0.1091445 -0.05319185
-0.018451734 -0.42757547 -0.40917465 0.0050406707 0.2612134 -0.31901318 -0.17311049 -0.18593992
-0.37554008 0.22386329 -0.15809135 -0.27954865 0.15396519 0.2510196 -0.018128365 -0.17223372
0.3110122 0.21994567 -0.058870252 0.33191583 -0.13399197 0.049566608 0.24525116 -0.12969936
-0.04742302 -0.17599154 -0.21007684 -0.09370525 -0.12465797 0.24193692 -0.07299151 -0.038216893
0.32773376 -0.09921417 -0.05883786 -0.12535715 -0.0022791047 0.16292809 -0.19754946 -0.19789994
0.37336028 -0.14377576 -0.13847908 -0.24699107 -0.21533532 -0.34189802 -0.2959711 -0.026641415
0.041138098 -0.15117405 0.14859408 -0.2561614 -0.17160246 -0.18488269 0.2087753 -0.07225463
0.18500637 -0.047099866 0.03499968 -0.100450724 -0.12660033 -0.3033759 -0.09433536 0.1834404
0.27410045 -0.13874167 0.020771392 -0.115016066 -0.26772904 0.07190391 -0.0039326083 0.13811503
-0.059628397 -0.106042266 0.0049894564 0.019702952 -0.26699686 -0.060141645 -0.29032195 0.26598063
-0.038735982 -0.25017577 0.09060475 0.29040897 -0.17659697 -0.21164463 -0.02891348 0.3873687
-0.31165555 -0.43555328 -0.17745051 -0.046740822 -0.12986475 0.2488271 0.15669714 -0.40967503
0.25105643 0.31200907 -0.18099733 0.17218016 0.09961368 -0.13610888 0.14206648 -0.2522453
-0.15003632 -0.06087306 0.28441256 0.35304397 -0.16173357 0.24410589 -0.012768158 -0.31037223
0.23227012 0.1194906 -0.29253632 -0.055612013 -0.03622515 0.21444432 -0.23312394 0.22614451
-0.10669281 -0.07097648 0.11039655 0.13504525 -0.37030706 0.18327832 -0.33587846 0.36154523
-0.39757892 0.03921496 0.03628142 -0.017320994 0.22225252 -0.35371935 0.02621204 -0.07342661
0.122150265 -0.039758872 0.06404975 -0.18745309 0.21039385 0.28175032 0.24943875 -0.08578164
-0.16108651 -0.14569007 0.32585412 -0.060272306 -0.2689936 0.13573472 -0.029663686 0.10251176

linear2.bias f4 [3]
00000000: 788a db3d 5e92 33bd da2b 853c
0.1071977 -0.04384076 0.016256262
