NN/model/model.pth (torch, 16799 bytes, 4 tensors)

linear1.weight f4 [256, 11]
0.4984252 0.4619437 -0.533232 -0.25920832 -0.10552761 -0.14005373 -0.00920375 0.26321396
0.20831579 0.25317848 0.058935277 -0.29598013 -0.20530237 0.09790955 -0.54767734 0.420257
0.34378368 -0.7368123 -0.6134263 0.19192952 -0.07388223 -0.56999063 0.4642101 0.512581
0.1102326 -0.34111702 -0.003985835 -0.23409252 0.117057756 0.51408815 0.3012865 0.32040927
0.0740466 -0.12406528 0.4913569 -0.29602075 -0.53534144 0.013622864 -0.10879883 0.22083825
-0.26850867 0.10813203 0.44387025 -0.093058385 -0.043141585 -0.46983647 -0.26189122 0.2688921
0.3707461 0.09239448 -0.40613374 -0.3075725 -0.07939129 0.13519102 -0.18526544 -0.28675196
-0.19853917 0.15944159 0.058862332 0.24061294 -0.25906536 0.5942877 0.33299786 -0.866957
-0.34864056 0.113209106 -0.21094778 -0.0128415935 0.04303667 -0.48113713 0.28492907 0.19919346
-0.53631485 -0.6475628 -0.016380955 -0.15103409 -0.5697382 -0.09202633 0.48558593 -0.12604345
-0.2989152 -0.36015025 -0.2240335 -0.22380733 -0.04026854 -0.11183005 0.085628234 0.11655548
0.24155943 -0.24293253 -0.26460966 0.103592016 -0.20802352 -0.092855066 -0.26224482 0.08510936
-0.10071416 0.013020349 -0.2566101 0.3979536 0.025225384 -0.42260107 0.07682578 0.21129937
0.11919209 -0.2942453 -0.27544835 -0.3665869 -0.25096604 0.18390337 0.14118001 0.3404411
-0.5606957 -0.31000152 -0.037160337 0.02618748 -0.02891874 0.35527453 0.16589902 0.17186372
0.14310798 -0.14997266 0.60968447 -0.25396723 -0.20339102 -0.086344324 0.0375993 -0.3095885
0.04923053 -0.06878701 0.11612003 -0.29936904 -0.16736497 0.4975531 -0.09010025 0.21264951
0.12740993 -0.25759608 -0.42769036 0.51325923 0.29652563 0.016507825 -0.0746686 0.35155863
-0.23627749 0.16414754 0.52385956 0.4396638 -0.45962557 -0.14159575 -0.4547741 -0.36060432
0.4690827 0.23332116 0.5125951 -0.026424296 -0.40228057 -0.3153843 -0.5016457 -0.07910277
0.13564889 0.19150479 0.26462558 0.03169989 -0.24376078 0.26651528 0.108120605 -0.6028897
0.14740884 0.008402014 -0.2703198 0.2032492 -0.30590197 0.17202476 -0.030210309 -0.20488021
0.13817614 0.5215048 0.40931436 -0.17936932 0.29280296 -0.3708988 -0.115121536 0.17792699
-0.31743112 0.15559915 -0.14718433 0.6263803 0.3227833 -0.600772 -0.10607599 0.14118652
0.034167882 -0.22651404 0.06524921 -0.32477453 -0.01441429 0.20239562 0.29571372 -0.11549736
-0.13321248 -0.02800693 -0.1632758 0.046099234 -0.0133853415 -0.16748355 0.07138307 -0.116676606
-0.07138776 0.3885854 0.2750216 0.36515236 0.12633404 0.19242808 0.059032988 -0.35733515
-0.40698594 -0.11768059 -0.19398125 0.34693602 -0.05670893 -0.101698875 -0.18813914 0.13112637
0.09430727 0.119694404 -0.24741857 0.013214244 -0.19254026 -0.12528662 -0.03596318 0.14104275
-0.5669982 0.41025412 -0.2697865 0.11660486 -0.046699118 -0.031094298 0.28910422 -0.18908206
-0.2410203 -0.027894689 0.38891247 -0.06529082 -0.059181053 0.034957204 -0.011067384 -0.40089288
0.22318643 -0.47043106 -0.29168478 0.45779195 -0.19104193 0.11360695 -0.6298392 0.64949757
00000000: 9631 ff3e e283 ec3e e481 08bf f4b6 84be
00000010: dc1e d8bd 3f6a 0fbe 53cb 16bc fbc3 863e
00000020: bc50 553e 9ca0 813e 1e66 713d b58a 97be
00000030: c93a 52be cd84 c83d 9534 0cbf ed2b d73e
00000040: 6a04 b03e bb9f 3cbf 8209 1dbf 2c89 443e
00000050: 914f 97bd e8ea 11bf f2ac ed3e 8238 033f
00000060: a1c1 e13d e4a6 aebe 9b9b 82bb f3b5 6fbe
00000070: fabb ef3d 489b 033f 3942 9a3e af0c a43e
00000080: bea5 973d f015 febd 2293 fb3e 0890 97be
00000090: 230c 09bf 6f32 5f3c ecd1 debd 6c23 623e
000000a0: f879 89be 5374 dd3d f642 e33e 6595 bebd
000000b0: 3bb5 30bd 688e f0be 9b16 86be 3aac 893e
000000c0: 6fd2 bd3e 5139 bd3d c3f0 cfbe 257a 9dbe
000000d0: e797 a2bd 846f 0a3e 39b6 3dbe 27d1 92be
000000e0: da4d 4bbe a844 233e a119 713d 3d63 763e
000000f0: 37a4 84be 3d23 183f b27e aa3e e5f0 5dbf
00000100: 0481 b2be 2dda e73d b202 58be 8c65 52bc
00000110: 3847 303d 9b57 f6be 39e2 913e 5ff9 4b3e
00000120: ee4b 09bf adc6 25bf 5a31 86bc aea8 1abe
00000130: 5dda 11bf 4d78 bcbd b89e f83e 8911 01be
00000140: 6a0b 99be 9d65 b8be 0a69 65be c02d 65be
00000150: a0f0 24bd 2707 e5bd db5d af3d a4b4 ee3d
00000160: 5b5b 773e 4ec3 78be eb7a 87be 0d28 d43d
00000170: 1e04 55be cc2a bebd f444 86be d14d ae3d
00000180: 3a43 cebd 4d53 553c 6662 83be 93c0 cb3e
00000190: 77a5 ce3c 2b5f d8be d656 9d3d dd5e 583e
000001a0: fc1a f43d 52a7 96be 9107 8dbe 47b1 bbbe
000001b0: 9f7e 80be 2a51 3c3e 7e91 103e 4c4e ae3e
000001c0: c189 0fbf 85b8 9ebe 7035 18bd 2087 d63c
000001d0: fee6 ecbc 8be6 b53e 6fe1 293e 0bfd 2f3e
000001e0: e68a 123e 6f92 19be 4814 1c3f fe07 82be
000001f0: bc45 50be 4bd5 b0bd b901 1a3d 6282 9ebe
00000200: f4a5 493d 34e0 8cbd 57d0 ed3d e646 99be
00000210: b961 2bbe 48bf fe3e 7b86 b8bd cbc0 593e
00000220: c077 023e a2e3 83be 3bfa dabe f564 033f
00000230: 35d2 973e 6b3b 873c daeb 98bd 7eff b33e
00000240: baf2 71be 4b16 283e a91b 063f 9d1b e13e
00000250: 0b54 ebbe 7afe 10be 27d8 e8be 21a1 b8be
00000260: 9c2b f03e beeb 6e3e 6f39 033f c477 d8bc
00000270: b8f7 cdbe 0d7a a1be da6b 00bf a200 a2bd
00000280: 8be7 0a3e d519 443e 017d 873e bed7 013d
00000290: 6d9c 79be b174 883e 566e dd3d fb56 1abf
000002a0: 58f2 163e 9aa8 093c 5b67 8abe 8f20 503e
000002b0: 2f9f 9cbe 4227 303e 9c7b f7bc 1ecc 51be
000002c0: 0c7e 0d3e 5781 053f a791 d13e 97ac 37be
000002d0: 45ea 953e 73e6 bdbe d7c4 ebbd 7e32 363e
000002e0: 5586 a2be 6255 1f3e 7db7 16be 765a 203f
000002f0: da43 a53e 32cc 19bf 5e3e d9bd 3393 103e
00000300: 9ff3 0b3d 4cf3 67be 61a1 853d d948 a6be
00000310: ea29 6cbc cc40 4f3e ca67 973e e189 ecbd
00000320: da68 08be ca6e e5bc c531 27be 8dd2 3c3d
00000330: 314e 5bbc cf80 2bbe 4931 923d 25f4 eebd
00000340: bf33 92bd aaf4 c63e a2cf 8c3e 40f5 ba3e
00000350: b65d 013e de0b 453e 93cc 713d a2f4 b6be
00000360: 7660 d0be 8502 f1bd 05a3 46be 99a1 b13e
00000370: 9f47 68bd 8047 d0bd 8ca7 40be fe45 063e
00000380: 2c24 c13d 5722 f53d 4b5b 7dbe 8e80 583c
00000390: 4629 45be 234b 00be 214e 13bd 836d 103e
000003a0: cb26 11bf d40c d23e 7521 8abe 87ce ee3d
000003b0: 9347 3fbd 78b9 febc 7805 943e ba9e 41be
000003c0: 07ce 76be 6783 e4bc 891f c73e 32b7 85bd
000003d0: d567 72bd 492f 0f3d f953 35bc d541 cdbe
000003e0: fc8a 643e 57dc f0be b557 95be b563 ea3e
000003f0: 7fa0 43be c3aa e83d 243d 21bf 7945 263f

linear1.bias f4 [256]
-0.075485736 0.28470498 -0.19978793 -0.0056573735 0.2536594 0.059138656 0.36170566 -0.43911657
-0.44865057 0.10566622 -0.18099816 0.29334158 -0.16980262 -0.16545925 0.080624275 0.09246969
-0.16820507 0.068694316 -0.33566633 -0.21001521 -0.15659007 -0.1466378 -0.02667156 0.23686835
-0.15115744 0.31820035 0.2678762 0.25479123 0.10638228 0.25219548 -0.4627851 -0.05166679
0.018829796 -0.1008755 -0.16446206 0.050888546 -0.21468724 -0.2411407 -0.12601076 -0.16053684
0.16350798 -0.29349422 0.11684483 -0.19999635 0.5172317 -0.045638297 -0.02317199 -0.13045344
0.29786584 0.064906396 0.037435148 -0.23564574 -0.07312869 -0.2541007 0.35664505 0.053190365
0.3152075 -0.30107722 -0.28715095 -0.18057987 0.055559598 -0.17049456 -0.31916973 -0.17573231
-0.19552018 -0.025440516 -0.03887637 -0.11271156 0.15853752 0.11622029 -0.04787971 0.011876677
0.26031128 -0.13263802 0.15395628 -0.12277277 -0.026186362 -0.14104748 -0.23388472 -0.073612645
0.42706883 -0.30711848 -0.042192843 -0.2988891 -0.30651543 -0.15756305 0.048178293 0.008417151
-0.28446656 0.17001556 -0.050840273 0.074611664 -0.08268893 -0.03365892 -0.011791743 -0.28826922
0.081672326 0.2998783 0.15177478 0.13956471 -0.33187652 -0.11864441 -0.15677898 -0.281612
-0.23830862 -0.078055106 -0.1575464 -0.12963161 -0.0990859 0.13860203 -0.096489094 -0.29564837
-0.092946686 0.38030967 -0.36169142 -0.15792337 0.13152345 -0.00012727344 -0.11215485 -0.09082523
0.18878351 0.12887543 0.20899916 -0.068287276 -0.06494683 -0.39115334 0.26692146 -0.009470681
-0.13443324 -0.32300738 -0.36425278 -0.2868862 -0.10025684 -0.036018685 -0.050541893 -0.37350243
-0.10492517 -0.035221484 -0.07197796 -0.11005363 0.19540644 0.08179129 -0.36707965 -0.16008236
0.3913516 -0.395012 -0.32346955 -0.22409931 -0.16717467 -0.17693329 -0.2797472 -0.1614229
-0.0790204 -0.114993356 0.31059483 -0.36406195 -0.29328206 -0.22069749 -0.21228655 0.079877526
0.035436686 -0.13166377 -0.23572709 -0.08589112 -0.22822317 -0.04041705 -0.119589254 0.2856508
0.113155045 -0.3735183 -0.048558775 -0.058755267 0.037464935 -0.0039912276 0.03960175 0.41719761
-0.27317116 -0.23211046 0.1154546 0.19939296 -0.2703728 -0.114138104 -0.10020995 8.8172055e-05
-0.12898406 -0.028850453 -0.031213863 -0.10936278 0.026201019 -0.21529688 -0.26448643 0.064633936
-0.09259904 -0.27857533 0.09737593 -0.3434535 -0.172753 -0.036621507 -0.10027617 -0.22149986
0.10160117 0.21217777 -0.15933874 0.3331624 0.1265335 -0.41918722 0.5281192 -0.19872393
-0.32608986 -0.20049246 -0.08871958 0.40580449 -0.092444785 0.8184618 -0.0029881792 -0.45065174
0.30309546 -0.07108504 -0.06795263 -0.20183724 -0.13546658 0.7717109 -0.07671776 -0.08110141
-0.15344693 0.085608155 -0.18232536 0.12109625 -0.026066517 -0.06982544 -0.17455855 0.18783775
-0.16094977 0.19302489 -0.27424213 -0.30896285 0.5472004 -0.04857736 0.04373157 -0.089069754
-0.08593411 -0.15252776 -0.055704646 -0.086365774 0.25329965 0.6080284 0.12923466 -0.06571637
-0.19609179 0.01349093 0.0063832877 -0.29856995 -0.020399319 0.11851182 0.03622644 -0.13588035
00000000: 4498 9abd dac4 913e 3595 4cbe 7d61 b9bb
00000010: a5df 813e 603b 723d 7c31 b93e e3d3 e0be
00000020: 87b5 e5be 8867 d83d 9557 39be de30 963e
00000030: bde0 2dbe 266e 29be 571e a53d c060 bd3d
00000040: f33d 2cbe 9baf 8c3d 75dc abbe 3a0e 57be
00000050: 2659 20be 3828 16be 517e dabc 9e8d 723e
00000060: 04c9 1abe 28eb a23e 1227 893e ff73 823e
00000070: f4de d93d c41f 813e 2bf2 ecbe 8ea0 53bd
00000080: f240 9a3c d097 cebd be68 28be 8270 503d
00000090: f9d6 5bbe 96ed 76be f708 01be c563 24be
000000a0: a36e 273e e044 96be 584c ef3d d8cb 4cbe
000000b0: 4c69 043f 39ef 3abd 2fd3 bdbc 9695 05be
000000c0: df81 983e a5ed 843d 9955 193d 1e4d 71be
000000d0: 7fc4 95bd 7d19 82be 2e9a b63e 24de 593d
000000e0: e162 a13e cb26 9abe 7305 93be eee9 38be
000000f0: 7692 633d 2096 2ebe 376a a3be 2cf3 33be
00000100: 7136 48be a168 d0bc d43c 1fbd 52d5 e6bd
00000110: a957 223e e704 ee3d 841d 44bd 6596 423c
00000120: 8547 853e 43d2 07be b7a6 1d3e 4a70 fbbd
00000130: c884 d6bc c06e 10be 7a7f 6fbe 3ac2 96bd
00000140: c4a8 da3e a23e 9dbe 67d2 2cbd fe07 99be
00000150: 97ef 9cbe 3558 21be 9a56 453d 17e8 093c
00000160: 9aa5 91be 8f18 2e3e e43d 50bd 00ce 983d
00000170: d058 a9bd f0dd 09bd 2832 41bc 0698 93be
00000180: d243 a73d a689 993e d96a 1b3e 0dea 0e3e
00000190: b8eb a9be d7fb f2bd ab8a 20be 732f 90be
000001a0: 2d07 74be 5bdb 9fbd d853 21be 26be 04be
000001b0: 8ced cabd b1ed 0d3e 139c c5bd 395f 97be
000001c0: d55a bebd f3b7 c23e 9e2f b9be aab6 21be
000001d0: 15ae 063e b474 05b9 71b1 e5bd 9402 babd
000001e0: 7750 413e ecf7 033e e003 563e 33da 8bbd
000001f0: d802 85bd 4045 c8be eea9 883e ea2a 1bbc
00000200: dea8 09be 3961 a5be 577f babe bfe2 92be
00000210: 7553 cdbd 5488 13bd 0405 4fbd b63b bfbe
00000220: 02e3 d6bd 6744 10bd 2e69 93bd cc63 e1bd
00000230: a018 483e 3182 a73d ddf1 bbbe a1ec 23be
00000240: 3d5f c83e 033f cabe cd9d a5be 4a7a 65be
00000250: d62f 2bbe 002e 35be 063b 8fbe 0b4c 25be
00000260: 73d5 a1bd a381 ebbd 4906 9f3e 5466 babe
00000270: 1129 96be 86fe 61be a561 59be d496 a33d
00000280: 0f26 113d ded2 06be 7162 71be afe7 afbd
00000290: 56b3 69be 598c 25bd 36eb f4bd d240 923e
000002a0: d5bd e73d ca3d bfbe 91e5 46bd 5da9 70bd
000002b0: d574 193d d8c8 82bb 7235 223d ed9a d53e
000002c0: 17dd 8bbe 5dae 6dbe 7673 ec3d ab2d 4c3e
000002d0: 4e6e 8abe 3dc1 e9bd e03a cdbd 03e9 b838
000002e0: 6614 04be c957 ecbc 37b4 ffbc 98f9 dfbd
000002f0: 85a3 d63c c976 5cbe c46a 87be cc5e 843d
00000300: 91a4 bdbd 6da1 8ebe 086d c73d 23d9 afbe
00000310: 2ae6 30be 6f00 16bd 985d cdbd dcd0 62be
00000320: 4614 d03d 2145 593e b229 23be 4394 aa3e
00000330: ff91 013e b59f d6be d232 073f 497e 4bbe
00000340: 40f5 a6be e54d 4dbe 9cb2 b5bd 9bc5 cf3e
00000350: b153 bdbd b686 513f 54d5 43bb d3bb e6be
00000360: 542f 9b3e 0995 91bd c02a 8bbd 6cae 4ebe
00000370: c0b7 0abe d88e 453f 331e 9dbd 7f18 a6bd
00000380: 3121 1dbe 5453 af3d 80b3 3abe 5001 f83d
00000390: 7389 d5bc a400 8fbd 7abf 32be 8a58 403e
000003a0: 04d0 24be 51a8 453e 7769 8cbe 6130 9ebe
000003b0: 5315 0c3f 0ef9 46bd e01f 333d 346a b6bd
000003c0: 39fe afbd 3d30 1cbe 8e2a 64bd 8ae0 b0bd
000003d0: 7eb0 813e c0a7 1b3f 1756 043e 4e96 86bd
000003e0: 49cc 48be 1009 5d3c e62a d13b 29de 98be
000003f0: 791c a7bc 53b6 f23d 2d62 143d 3824 0bbe

linear2.weight f4 [3, 256]
-0.09435133 0.41197684 -0.32897216 0.118118405 0.1624918 0.24576698 0.27183622 -0.051633805
-0.04136974 -0.20000681 -0.043659635 0.21277878 0.1749432 -0.59860384 -0.17215516 0.027300673
-0.14590243 -0.03045368 -0.2877646 -0.34015906 -0.0055964864 -0.08012111 -0.30737513 0.010976226
-0.1017632 0.25034508 0.35422507 -0.016844887 0.27321327 0.36415234 -0.21299048 0.017358383
-0.41765293 -0.038273536 -0.028119482 -0.10553946 -0.16787136 -0.05135513 -0.16343524 -0.046441916
0.21517664 -0.023773408 -0.37386134 -0.25370723 0.3390377 0.09844102 0.05224631 -0.3745983
0.64376116 0.32367262 -0.062891714 -0.22149046 -0.42354614 -0.25187787 0.2127417 -0.48145518
0.48070654 0.01087881 0.0054576765 -0.10343381 0.056692787 -0.14748445 -0.1736367 -0.10394856
-0.030676244 -0.04308606 0.008802986 -0.005233979 0.04316921 -0.17879318 0.24765648 0.40373522
0.36393476 0.41238356 0.39488378 -0.54522395 -0.22616886 0.02903707 -0.16916299 0.13665366
0.15099879 -0.025011087 -0.059789065 -0.1104725 -0.16329587 -0.60084206 0.8015461 -0.15514135
0.02118896 0.26336464 -0.41911933 0.007808144 0.34181142 -0.19838068 0.17105985 -0.028999267
-0.48369282 0.29809684 0.18226552 0.008431848 -0.083025366 -0.53093266 -0.044259578 -0.05319185
-0.018451734 -0.6107894 -0.48893416 0.118769765 0.37456188 -0.36983705 -0.30742094 -0.5204409
-0.45040444 0.28939614 -0.17642249 -0.41440526 0.25583795 0.42206678 0.05668131 -0.17596382
0.31105155 0.3606864 0.047044616 0.42947936 -0.2604718 -0.015076777 0.32683814 -0.17672558
0.08847668 -0.1522197 -0.09417749 -0.10054543 -0.12181067 0.33430487 -0.10242489 -0.055560403
0.4104085 -0.12860155 -0.05883786 -0.035499237 0.051212996 0.25876108 -0.22297685 -0.06249453
0.40469477 -0.09900273 -0.06643561 -0.27228856 -0.28509638 -0.55341506 -0.37899742 -0.023480967
0.15115947 -0.105872564 0.21461491 -0.22739552 -0.19678566 -0.21818002 0.29683006 -0.089633316
0.25102922 0.016561981 0.03499968 -0.08307373 -0.24686845 -0.5081783 -0.100575194 0.20088838
0.31965002 -0.18506724 -0.06702797 -0.018834684 -0.35803306 0.11122518 0.0009952767 0.15087672
-0.059628397 -0.13518904 -0.009735029 0.13696688 -0.1765186 -0.013459369 -0.33377445 0.33336118
-0.020536069 -0.30593953 0.05555079 0.3175224 -0.28670463 -0.20794056 -0.02891348 0.42793825
-0.3046616 -0.33150518 -0.20398362 -0.03906379 -0.102900475 0.25827834 0.09275905 -0.49279907
0.37308672 0.34938782 -0.17517331 0.17876993 0.057021026 -0.14232646 0.12832256 -0.3244892
-0.08958074 -0.06087306 0.37170592 0.4210993 -0.055960175 0.29236534 -0.11171331 -0.29154778
0.22759224 0.09047914 -0.44958472 -0.05665811 0.052256435 0.3095491 -0.2909238 0.29486448
-0.02126957 0.00093576533 0.2488282 0.09992462 -0.3224434 0.19490962 -0.23703258 0.4884465
-0.35582966 0.06837942 0.027786637 0.044253923 0.26776606 -0.422322 0.009768861 -0.13426507
0.1252102 -0.009970251 0.16223264 -0.30684623 0.22730236 0.33900002 0.35245445 -0.16201535
-0.15515867 0.0032081625 0.42019355 -0.084070936 -0.36850438 0.14545457 0.010294373 0.1126792
00000000: 453b c1bd a1ee d23e 0a6f a8be 10e8 f13d
00000010: 4064 263e 57aa 7b3e 1e2e 8b3e f87d 53bd
00000020: 5173 29bd 96ce 4cbe 72d4 32bd aee2 593e
00000030: 4f24 333e 1a3e 19bf 7149 30be a9a5 df3c
00000040: 7267 15be ff79 f9bc e255 93be 5429 aebe
00000050: bb62 b7bb 8916 a4bd 4660 9dbe a1d5 333c
00000060: 3969 d0bd 3b2d 803e fd5c b53e 4afe 89bc
00000070: 9ce2 8b3e 2d72 ba3e 2d1a 5abe 2b33 8e3c
00000080: 9bd6 d5be b6c4 1cbd d45a e6bc 1325 d8bd
00000090: 78e6 2bbe c259 52bd 915b 27be e139 3ebd
000000a0: 4457 5c3e 73c0 c2bc c16a bfbe eae5 81be
000000b0: 5996 ad3e 729b c93d 3a00 563d 59cb bfbe
000000c0: 88cd 243f 6bb8 a53e 5fcd 80bd 65ce 62be
000000d0: 0adb d8be 23f6 80be f6d8 593e 4b81 f6be
000000e0: 2b1f f63e 093d 323c 4fd6 b23b 1bd5 d3bd
000000f0: b236 683d 2a06 17be d2cd 31be fce2 d4bd
00000100: bf4c fbbc 027b 30bd 663a 103c cc81 abbb
00000110: 33d2 303d 8f15 37be a999 7d3e 62b6 ce3e
00000120: a855 ba3e f023 d33e 352e ca3e cc93 0bbf
00000130: cf98 67be 26df ed3c 1039 2dbe f0ee 0b3e
00000140: 6d9f 1a3e 0de4 ccbc 61e5 74bd 683f e2bd
00000150: 0837 27be c9d0 19bf 2032 4d3f 60dd 1ebe
00000160: 7894 ad3c bbd7 863e cf96 d6be 76db ff3b
00000170: e801 af3e 4e24 4bbe 502a 2f3e df8f edbc
00000180: 96a6 f7be 26a0 983e d0a3 3a3e bc25 0a3c
00000190: 3409 aabd 34eb 07bf 8849 35bd b3df 59bd
000001a0: 1728 97bc b25c 1cbf 9455 fabe 903d f33d
000001b0: 93c6 bf3e 485b bdbe 4766 9dbe 9d3b 05bf
000001c0: 699b e6be bb2b 943e 19a8 34be ed2c d4be
000001d0: 31fd 823e 2319 d83e a92a 683d dc2f 34be
000001e0: 2642 9f3e e3ab b83e dbb1 403d b8e4 db3e
000001f0: 8f5c 85be 9604 77bc 5457 a73e 8df7 34be
00000200: 4333 b53d 7bdf 1bbe 21e0 c0bd c3ea cdbd
00000210: df77 f9bd 022a ab3e 24c4 d1bd 4e93 63bd
00000220: 1021 d23e 20b0 03be f8ff 70bd a667 11bd
00000230: b8c4 513d 557c 843e 0b54 64be 44fa 7fbd
00000240: 2734 cf3e f1c1 cabd 650f 88bd 6869 8bbe
00000250: 27f8 91be 9cac 0dbf f30b c2be 285b c0bc
00000260: 8cc9 1a3e b7d3 d8bd 03c4 5b3e 5fda 68be
00000270: 2e82 49be 956a 5fbe 1cfa 973e ac91 b7bd
00000280: e786 803e feac 873c d35b 0f3d 8f22 aabd
00000290: 15cb 7cbe f917 02bf 5efa cdbd afb5 4d3e
000002a0: 2ba9 a33e 4482 3dbe f645 89bd 324b 9abc
000002b0: 1c50 b7be 07ca e33d f273 823a 6d7f 1a3e
000002c0: e83c 74bd ff6e 0abe ac7f 1fbc 0c41 0c3e
000002d0: 4bc1 34be af84 5cbc 7ce4 aabe 51ae aa3e
000002e0: 423b a8bc 1ba4 9cbe 3a89 633d 4c92 a23e
000002f0: f3ca 92be 5fee 54be f6db ecbc b91a db3e
00000300: 9bfc 9bbe 0cbb a9be 15e1 50be 5a01 20bd
00000310: 7cbd d2bd 0f3d 843e 75f8 bd3d 2950 fcbe
00000320: 3905 bf3e f6e2 b23e a260 33be 770f 373e
00000330: e18e 693d 07be 11be fd66 033e 7323 a6be
00000340: 1b76 b7bd 0856 79bd 3d50 be3e 549a d73e
00000350: 7f36 65bd e9b0 953e f3c9 e4bd c045 95be
00000360: f10d 693e 214d b93d f82f e6be 5612 68bd
00000370: d80a 563d 387d 9e3e f7f3 94be 7af8 963e
00000380: 853d aebc 264e 753a d2cc 7e3e 47a5 cc3d
00000390: 4d17 a5be 6396 473e abb8 72be a915 fa3e
000003a0: 4e2f b6be 820a 8c3d cda0 e33c 9a43 353d
000003b0: a218 893e 973a d8be 930d 203c c87c 09be
000003c0: 1a37 003e 435a 23bc 5020 263e f31a 9dbe
000003d0: f3c1 683e 6991 ad3e e974 b43e 5ae7 25be
000003e0: eae1 1ebe 0940 523b 9c23 d73e 622d acbd
000003f0: 9bac bcbe 0bf2 143e bba9 283c 5ac4 e63d

linear2.bias f4 [3]
0.21237059 0.0949767 0.06051949
00000000: ad77 593e 2583 c23d 49e3 773d
